LeNET/save_model/best_model.pth (torch, 250219 bytes, 10 tensors)

conv1.weight f4 [6, 1, 5, 5]
0	0x3d9d49b8	0.07680076
1	0x3e84a106	0.259041
2	0x3eb22f85	0.3480188
3	0xbcb0437f	-0.02151656
4	0xbe2dd46c	-0.16975564
5	0x3c849d85	0.016188392
6	0x3e8f241a	0.2795723
7	0x3e569ed1	0.20959021
8	0x3e037620	0.1283803
9	0xbe2923cb	-0.1651756
10	0xbe72d466	-0.23713836
11	0xbe159598	-0.14607847
12	0x3e5458bc	0.20736974
13	0x3e963f54	0.2934519
14	0x3eb3c7e8	0.35113454
15	0xbe907b21	-0.2821894
16	0xbe6c77e6	-0.23092613
17	0xbdec4f11	-0.11538518
18	0x3ebe3a93	0.37154064
19	0x3edb2e69	0.42808846
20	0xbea39a9c	-0.31953895
21	0xbbc7a45c	-0.006092591
22	0x3e6f291a	0.23355523
23	0x3e923fe2	0.28564364
24	0x3d86b386	0.0657721
25	0x3d7481cd	0.0596941
26	0x3cb76546	0.022387158
27	0x3cbd3042	0.0230943
28	0xbe8c3c0e	-0.27389568
29	0xbcb57c57	-0.022154016
30	0xbd19ac37	-0.037517752
31	0x3d363139	0.044480536
32	0xbbacdf06	-0.00527561
33	0x3e9741d6	0.29542416
34	0x3e8b8a67	0.2725403
35	0x3eb6ad70	0.35679197
36	0x3f03c838	0.51477385
37	0x3f248c71	0.64276797
38	0x3ea306a2	0.31840998
39	0x3ed45b8b	0.41476092
40	0x3e70c231	0.23511578
41	0x3eb84316	0.35988683
42	0x3e884287	0.26613256
43	0x3ddfcc71	0.10927666
44	0x3e0485bf	0.12941645
45	0x3d435387	0.04768708
46	0x3e9decdf	0.3084478
47	0x3e079bdd	0.13243051
48	0xbe3d5b98	-0.18491971
49	0xbbf9e94e	-0.007626689
50	0x3ec0a4ec	0.37625825
51	0x3ed80b53	0.4219614
52	0x3dec9144	0.11551145
53	0xbe9c0574	-0.3047291
54	0x3d121baf	0.035670932
55	0x3ec5b621	0.38615516
56	0x3e5c5daa	0.21520105
57	0xbea423e5	-0.32058635
58	0xbe55f92c	-0.20895833
59	0xbe8ca1f2	-0.27467304
60	0x3eebae22	0.4603129
61	0x3dd7ce59	0.105374046
62	0xbe945e73	-0.2897831
63	0x3cfe75ef	0.031062094
64	0xbea33a15	-0.3188025
65	0x3ee98838	0.4561174
66	0x3da360b6	0.079774305
67	0xbd92527a	-0.071446374
68	0x3d616ddf	0.055036422
69	0x3e585bf9	0.21128835
70	0x3ed6a44d	0.41922227
71	0x3ee891e6	0.45423812
72	0x3d42fb2b	0.047602814
73	0x3dafcb1a	0.085836604
74	0x3dedb8eb	0.11607536
75	0xba683be5	-0.00088590226
76	0x3ec1dc1b	0.3786324
77	0x3e81c837	0.25348064
78	0x3b47a71a	0.003046459
79	0x3e3e8132	0.18603972
80	0x3f002c45	0.5006755
81	0x3f61c15c	0.8818567
82	0x3f307d7b	0.6894147
83	0x3f026a98	0.509439
84	0x3eaab1e8	0.33338857
85	0x3f319d52	0.69380677
86	0x3f8b5309	1.0884715
87	0x3f571cc8	0.8402829
88	0x3ed109ac	0.40827692
89	0xbc97323a	-0.018456567
90	0x3eb9a287	0.3625681
91	0x3f2cb76d	0.67467386
92	0x3eb91aee	0.36153358
93	0x3e1f4f26	0.15557536
94	0xbdc93fab	-0.09826597
95	0xbe428d48	-0.18999207
96	0x3d25f819	0.040519807
97	0xbe19dc9c	-0.15025562
98	0xbd9eaf7b	-0.07748314
99	0xbd82126b	-0.06351169
100	0x3cd41fa8	0.025894001
101	0xbd1a97e4	-0.03774251
102	0xbe45907d	-0.19293399
103	0x3d772598	0.060338587
104	0x3d399fbe	0.045318358
105	0xbe3fbe9a	-0.18725052
106	0x3e167b73	0.1469553
107	0x3d7039b5	0.058648784
108	0xbe19b5f2	-0.15010813
109	0xbdc7c66f	-0.09754645
110	0xbdeb7b39	-0.11498112
111	0xbc6ffd17	-0.014647744
112	0xbe185871	-0.14877488
113	0x3d84214e	0.06451665
114	0xbdc41e00	-0.095760345
115	0xbe0e5ff8	-0.13903797
116	0x3d8f7bbb	0.070060216
117	0xbca4e5f2	-0.020129178
118	0x3d263efa	0.040587403
119	0xbcc2970a	-0.023753662
120	0xbd9cc547	-0.07654815
121	0x3d8860c0	0.066590786
122	0x3cb83f29	0.022491055
123	0xbdc954af	-0.09830605
124	0xbe0597b6	-0.13046154
125	0xbe0ad283	-0.13556866
126	0x3e396bbb	0.18107502
127	0x3e36b8af	0.17843889
128	0xbb9042b1	-0.0044024815
129	0x3eacfbb4	0.33785784
130	0x3cc49a8d	0.023999477
131	0xbe3745fc	-0.1789779
132	0x3e5aed09	0.21379484
133	0xbcab099f	-0.020878611
134	0x3e816e66	0.2527954
135	0xbe38d105	-0.18048485
136	0xbe149076	-0.14508232
137	0x3e316455	0.1732343
138	0x3cec645b	0.028856447
139	0xbc2a025d	-0.01037654
140	0x3e04066c	0.12893075
141	0x3e4e2a60	0.20133352
142	0xbe398e96	-0.18120798
143	0xbe83f8ec	-0.2577585
144	0xbe505321	-0.20344211
145	0x3dc889da	0.09791918
146	0xbde2306e	-0.110443935
147	0xbe04ad61	-0.12956764
148	0xbe1c0ae9	-0.15238537
149	0x3d846967	0.064654164

conv1.bias f4 [6]
0	0xbe0560e0	-0.13025236
1	0x39ace69f	0.00032978223
2	0xbe20bcd1	-0.15697028
3	0x3a88a66f	0.0010425578
4	0xbd54db6a	-0.051967062
5	0x3d255306	0.04036238

conv2.weight f4 [16, 6, 5, 5]
0	0x3c9f868b	0.019473335
1	0xbd134d68	-0.035962492
2	0x3d50c822	0.05097211
3	0xbd4eb5e2	-0.050466426
4	0xbc68a508	-0.014199503
5	0xbc9c9231	-0.019112678
6	0xbd38b2f5	-0.04509254
7	0xbd944441	-0.07239581
8	0x3d08ee20	0.03343022
9	0x3c6fb8d5	0.01463147
10	0xbda5d163	-0.08096578
11	0xbd0e53a6	-0.034747742
12	0xbdac16ee	-0.08402811
13	0x3d29a2cc	0.04141502
14	0x3d98bc8c	0.074578375
15	0x3c09413e	0.008377371
16	0xbd94e406	-0.072700545
17	0x3d32c077	0.04364058
18	0xbb75546b	-0.003743435
19	0x3d034c2e	0.032055072
20	0xbd39ebbf	-0.04539084
21	0xbda16725	-0.078810014
22	0x3c969100	0.018379688
23	0xbd183440	-0.037159204
24	0xbcdfc5e0	-0.027316034
25	0xbdc11553	-0.094278954
26	0xbe183073	-0.14862232
27	0xbbe3d2dd	-0.006952627
28	0x3be61f55	0.007022778
29	0xbd919c89	-0.07109935
30	0x3df32996	0.11873166
31	0x3d813e0d	0.06310663
32	0x3e82f3e7	0.25576708
33	0x3dacb2cd	0.08432541
34	0x3db8b855	0.090195335
35	0x3dec4dd1	0.1153828
36	0x3e0217d1	0.12704398
37	0x3c1a51f7	0.009418956
38	0x3c483e01	0.012221814
39	0xbdad645c	-0.08466408
40	0xbd62db1e	-0.055384748
41	0xbe20a224	-0.15686852
42	0xbe5948d1	-0.21219184
43	0xbd0f0d11	-0.03492457
44	0x3d9c6f06	0.076383635
45	0xbcc9e59e	-0.024645623
46	0x3d23774e	0.0399087
47	0x3b21eca1	0.0024707692
48	0xbcc056ff	-0.023478983
49	0x3c6ec9fc	0.014574524
50	0x3cdcf6cf	0.026973156
51	0x3dfe7376	0.12424366
52	0x3d4c3f2d	0.049864937
53	0x3dd58578	0.10425848
54	0xbcab9e35	-0.020949462
55	0x3dcaed0a	0.09908493
56	0x3d4bdba9	0.04977003
57	0x3cc069bb	0.023487916
58	0xbd329bf0	-0.043605745
59	0xbd887b2b	-0.066641174
60	0xbcaf6833	-0.02141199
61	0xbdace435	-0.084419645
62	0xbd211a4c	-0.03933172
63	0xbd5df414	-0.05418785
64	0x3ca2b2fb	0.019860735
65	0xbd72f449	-0.059315
66	0x3d30f066	0.04319801
67	0xbd85010c	-0.0649434
68	0x3d46288e	0.04837852
69	0x3d0c130e	0.03419786
70	0xbd7844ba	-0.060612418
71	0xbddad63d	-0.10685394
72	0xbd9847c2	-0.07435562
73	0xbe0c35d3	-0.13692407
74	0xbd757b26	-0.059931897
75	0xbd1fabe1	-0.038982276
76	0xbd8d685a	-0.06904669
77	0xbe679683	-0.2261601
78	0xbde1b9a4	-0.11021736
79	0xbe0349c8	-0.12821114
80	0xbcf4bf25	-0.029876301
81	0x3dd890cc	0.10574493
82	0x3e558102	0.20849994
83	0x3e9e55e6	0.3092491
84	0x3dd4d54e	0.10392247
85	0x3e9ee8a9	0.3103688
86	0x3ed1f362	0.41006
87	0x3ea21c8c	0.31662405
88	0x3d3b2cad	0.045696903
89	0xbde90c2d	-0.113792755
90	0xbdca8382	-0.098883644
91	0xbe726170	-0.23669982
92	0xbe7a9219	-0.24469794
93	0xbe71814e	-0.23584482
94	0x3c01412a	0.0078890715
95	0xbe18db40	-0.14927387
96	0xbe6193ab	-0.22028987
97	0xbdc88f98	-0.09793013
98	0x3cdd1c3f	0.026991008
99	0x3cb119b5	0.021618703
100	0xbb5d5839	-0.0033774509
101	0xbcc7da36	-0.024396043
102	0xbca625c8	-0.020281687
103	0xbd2b1ce5	-0.041775603
104	0xbda0cffb	-0.07852169
105	0x3d9bbf43	0.0760484
106	0xbd2c5063	-0.04206885
107	0x3d998d38	0.074976385
108	0xbcfdffc8	-0.031005755
109	0xbd2821a9	-0.041047726
110	0xbd9c8c6e	-0.07643972
111	0x3d2dd0f1	0.04243559
112	0xbd6b606c	-0.057465002
113	0xbc3ddf31	-0.0115888575
114	0xbda63e39	-0.08117337
115	0x3c0f8e92	0.008762019
116	0xbb54e5a9	-0.003248552
117	0x3d11b166	0.03556957
118	0x3d880dc7	0.06643253
119	0xbd8790ad	-0.066193916
120	0xbce94546	-0.028475415
121	0xbcd51838	-0.026012525
122	0x3d9003d0	0.07031977
123	0xbd0ae18c	-0.033906505
124	0xbc07e1f1	-0.008293615
125	0x3dc3a326	0.095526025
126	0xbd46d433	-0.048542213
127	0x3d0aff52	0.0339349
128	0xbd39a678	-0.045324773
129	0x3d80a291	0.06281007
130	0xbd8b05a0	-0.06788182
131	0xbc1beb8d	-0.009516609
132	0xbc7a0266	-0.015259361
133	0x3d8ccb70	0.0687474
134	0xbd9ddb6f	-0.07707869
135	0xbbbbb00b	-0.005727773
136	0x3e01e2d7	0.12684189
137	0xbcc85b36	-0.024457555
138	0x3d0ae6f3	0.033911657
139	0xbd94ebac	-0.07271513
140	0x3dc9978b	0.09843358
141	0x3ccdc301	0.0251174
142	0x3d8a5ffa	0.06756587
143	0xbdcb8ff9	-0.0993957
144	0xbd2e39fd	-0.04253577
145	0xbcf83996	-0.030300897
146	0xbd0c16d5	-0.03420146
147	0xbd8ecafa	-0.069723085
148	0x3d2a9d1d	0.04165374
149	0xbccf9238	-0.025338277
150	0xbd840c98	-0.064477146
151	0xbd58e685	-0.052954216
152	0xbb776f0b	-0.0037755396
153	0x3d0d92dc	0.034563884
154	0xbda2901b	-0.07937642
155	0x3d1a0273	0.037599992
156	0xbe14c070	-0.14526534
157	0xbd0e2774	-0.034705594
158	0xbd36c6f9	-0.04462335
159	0x3db1fe79	0.08691115
160	0x3d5df294	0.05418642
161	0x3c9fc1e3	0.019501632
162	0xbd1ab98e	-0.037774615
163	0xbcebfada	-0.028806139
164	0x3de326b2	0.11091365
165	0x3e0bbe90	0.13646913
166	0x3c89f931	0.016842457
167	0x3d5c96a3	0.053854596
168	0xbd152fa6	-0.036422394
169	0x3d99c86d	0.07508931
170	0x3dfe2548	0.124094546
171	0x3d64833e	0.055789225
172	0x3d0c7f58	0.034301132
173	0x3cd61e84	0.026137598
174	0x3d093102	0.033494003
175	0x3d74573e	0.059653513
176	0x3dd3db08	0.10344511
177	0x3d182811	0.037147585
178	0x3e10a96b	0.14127128
179	0x3d02bcfb	0.031918507
180	0x3d8a7d55	0.067621864
181	0x3d02ea3c	0.031961665
182	0xbc1bc0d9	-0.009506428
183	0xbdc6c434	-0.097053915
184	0x3b9d48e8	0.004799951
185	0x3d969969	0.073534794
186	0x3d4782e9	0.04870883
187	0xbd9d8086	-0.076905295
188	0xbad9cf1e	-0.0016617512
189	0xbdac5129	-0.084139176
190	0xbd3ffdae	-0.046872787
191	0x3e031ba0	0.12803507
192	0xbd6f86d1	-0.05847818
193	0xbdd0df83	-0.101988815
194	0x3d1509df	0.036386367
195	0x3ccd41ef	0.025055854
196	0x3dbd05aa	0.09229596
197	0xbdb2e4f9	-0.08735079
198	0xbd820112	-0.063478604
199	0xbdb69b5f	-0.089163534
200	0xbdb4e985	-0.08833603
201	0xbd6b3b08	-0.057429343
202	0xbdbe34ea	-0.09287436
203	0xbd79e7b5	-0.06101199
204	0xbc1104ab	-0.008851211
205	0xbdcd0eb9	-0.10012574
206	0x3df3924b	0.118931375
207	0xbc60d356	-0.013722261
208	0xbda46231	-0.08026541
209	0x3dae235f	0.0850284
210	0x3cecc801	0.028903963
211	0x3d64b3a0	0.055835366
212	0x3d6f6b7a	0.058452107
213	0xbd21ca75	-0.03949972
214	0xbdaae069	-0.08343584
215	0xbdf0283b	-0.11726423
216	0x3de55ac6	0.11198954
217	0xbc254d43	-0.010089221
218	0xbd8b3c46	-0.067986056
219	0x3c2ae610	0.010430828
220	0xbcad9739	-0.021190273
221	0x3d6fbbe6	0.058528803
222	0xbceb6458	-0.028734371
223	0xbd128453	-0.035770725
224	0xbda48c42	-0.080345646
225	0x3cbc2313	0.022965943
226	0xbc0d72a8	-0.008633293
227	0x3dbd2a7b	0.09236618
228	0x3e525123	0.20538764
229	0x3dfe6772	0.124220744
230	0x3e005fa4	0.12536484
231	0x3d26cea5	0.040724415
232	0xbe02f31d	-0.12788053
233	0x3d28978f	0.041160163
234	0xbd8794c8	-0.06620175
235	0x3cb75e88	0.022383943
236	0x3d298431	0.041385833
237	0xbe4aec56	-0.19816718
238	0xbe340aa2	-0.17582181
239	0xbd591001	-0.05299378
240	0xbc33e511	-0.010979907
241	0x3e2de9da	0.16983739
242	0xbe0267b1	-0.12734868
243	0xbcbad5b3	-0.022806978
244	0xbd1a8baf	-0.03773087
245	0xbc4db003	-0.0125541715
246	0x3dab526a	0.083653286
247	0x3c934257	0.01797597
248	0xbe111d5c	-0.14171356
249	0xbda34a5e	-0.07973169
250	0x3d8d62bc	0.06903598
251	0x3d8b0e91	0.06789888
252	0x3d5631a2	0.052293427
253	0x3d0e5e80	0.03475809
254	0x3bbb351f	0.0057131196
255	0x3d62ed37	0.055402007

conv2.bias f4 [16]
0	0x3afb1f31	0.0019159076
1	0xbdce5f76	-0.100768015
2	0xbdd034ba	-0.10166307
3	0xbb24f1c6	-0.0025168522
4	0x3dbd9155	0.092562355
5	0xbddff5c9	-0.10935552
6	0x3d18ad5b	0.0372747
7	0x3cd4e2e1	0.02598709
8	0xbd9e79a2	-0.07738043
9	0x3deb90d6	0.11502235
10	0x3cbf992c	0.023388468
11	0xbdb4a9b5	-0.088214315
12	0xbd1b91a5	-0.037980694
13	0xbdb2c7a1	-0.087294824
14	0x3d4c3380	0.0498538
15	0xbe16b0fa	-0.14715949

conv3.weight f4 [120, 16, 5, 5]
0	0xbb55c397	-0.0032617801
1	0xbd01fea0	-0.03173697
2	0xbd984b45	-0.074362315
3	0x3d1c10ab	0.038101833
4	0x3d31af9c	0.043380365
5	0xbd62566d	-0.055258203
6	0x3cef448c	0.02920749
7	0x3daa99e3	0.08330133
8	0xbd1633f5	-0.036670644
9	0xbb1b8aef	-0.0023733934
10	0x3bd3ae6c	0.0064600017
11	0x3cb3474e	0.021884587
12	0xbd605bd6	-0.05477508
13	0xbbce8bab	-0.006303271
14	0xbc8f8ef3	-0.017524218
15	0xbd6c09f1	-0.05762667
16	0xbcd283a5	-0.025697539
17	0x3ceda805	0.029010782
18	0xbc4fea8a	-0.012690196
19	0xbd44359b	-0.047902685
20	0x3dda53a6	0.10660486
21	0x3c5a14d3	0.013310629
22	0x3db932c9	0.090428896
23	0x3d6dd80f	0.058067378
24	0x3da4b0b6	0.080415174
25	0x3d3ff025	0.04685988
26	0xbbc7b93d	-0.00609508
27	0x3d306118	0.043061346
28	0x3cc5e3a3	0.024156397
29	0xbc21bf32	-0.009872245
30	0xbc17b352	-0.009259062
31	0x3c064c67	0.008196927
32	0xbd04ecff	-0.03245258
33	0x3d1c2883	0.038124572
34	0xbcd5261a	-0.026019145
35	0xbba6649c	-0.0050779115
36	0xba9024b4	-0.0010997267
37	0xbc3bd8c5	-0.011465256
38	0x3d2696dc	0.040671214
39	0xbdc7ad6e	-0.09749876
40	0x3cc6a2a3	0.024247473
41	0x3d277c8e	0.04089027
42	0x3ab32d9a	0.0013670207
43	0x3d737acb	0.059443276
44	0xbcabb65b	-0.020960977
45	0xbcf90fe1	-0.03040308
46	0x3d86f7bb	0.065902196
47	0xbd898e9f	-0.06716656
48	0x3aaee6ec	0.0013343967
49	0xbd893275	-0.06699077
50	0xbbc2ce59	-0.0059450087
51	0x3a86cd8b	0.0010284645
52	0x3d053bdc	0.03252779
53	0x3cab8242	0.020936135
54	0x3d355d59	0.044278476
55	0xbd7c08a8	-0.061531693
56	0x3d4c2943	0.049844038
57	0x3a85aa71	0.001019789
58	0x3d0a627b	0.033785325
59	0x3d1d4c13	0.03840263
60	0xbcfe9b4b	-0.031079909
61	0xbc963466	-0.018335532
62	0x3c731352	0.014836149
63	0x3d54d487	0.051960494
64	0x3c2446a1	0.010026605
65	0xbcfe3573	-0.031031346
66	0x3d139cf4	0.036038354
67	0xbb09973e	-0.0020994688
68	0xbd836d6a	-0.064173535
69	0x3a8774de	0.0010334512
70	0xbb8c7cc9	-0.0042873365
71	0x3da1d0b1	0.07901133
72	0xbcc7aa45	-0.024373183
73	0x3c665fac	0.014060896
74	0xbadd9e03	-0.0016908053
75	0xbb0a6d2e	-0.0021122205
76	0x3c88af72	0.016685221
77	0xbcc150f0	-0.023598164
78	0x3b5d5097	0.003376996
79	0xbc634d0f	-0.013873353
80	0xbbe66b44	-0.00703183
81	0xbda706a7	-0.08155566
82	0xbd688dad	-0.056775738
83	0xbdb0b384	-0.0862799
84	0xbd282aba	-0.041056372
85	0x3c0118ff	0.007879495
86	0xbdb04646	-0.086071536
87	0xbd832582	-0.064036384
88	0xbcccbaf0	-0.024991482
89	0x3d11e065	0.03561439
90	0xbd1e8fde	-0.03871142
91	0xbd2024e6	-0.03909769
92	0x3dbf9055	0.09353701
93	0x3d419f51	0.047271077
94	0xbd2f6d9c	-0.04282914
95	0x3cc16926	0.023609709
96	0xbd38b866	-0.04509773
97	0x3c19936e	0.009373529
98	0x3c798b4b	0.015230964
99	0x39381035	0.00017553645
100	0x3cfce32b	0.03087004
101	0xbd043cac	-0.032284424
102	0x3d956ef3	0.072965525
103	0xbc3000a0	-0.0107423365
104	0x3b8a3c66	0.004218626
105	0xbbbc27d9	-0.005742055
106	0x3cf20b30	0.02954635
107	0xbd093e1d	-0.0335065
108	0xbc07a647	-0.00827939
109	0x3d65cea3	0.056105267
110	0x3cfdeea3	0.03099758
111	0x3d1c8fe4	0.038223162
112	0x3d4f5ef3	0.05062766
113	0xbc4740ed	-0.012161476
114	0x3a797409	0.0009515887
115	0x3d90c0a2	0.07067992
116	0x3c8a5a5d	0.016888792
117	0x398b380c	0.00026553904
118	0x3c10f2bb	0.008846934
119	0xbcd06a92	-0.025441442
120	0xbc8e985d	-0.017406637
121	0xbd67c82b	-0.05658738
122	0xbd2f0ae5	-0.042735
123	0x3d5c5067	0.053787615
124	0x3cebd461	0.028787794
125	0xbd31d40a	-0.043415107
126	0xbd1850df	-0.0371865
127	0xbd26ba28	-0.040704876
128	0x3d108868	0.035286337
129	0x3d299f33	0.04141159
130	0x3d2b070c	0.041754767
131	0xbd28b35f	-0.041186687
132	0x3cb10896	0.02161054
133	0xbd267dc1	-0.040647272
134	0xbd12f214	-0.035875395
135	0xbc007931	-0.007841394
136	0xbd868ddb	-0.065700255
137	0xbd84715e	-0.064669356
138	0xbccd00bf	-0.02502477
139	0xbd8cbc98	-0.06871909
140	0x3d78c42a	0.06073395
141	0xbc567b44	-0.013090912
142	0x3b0fe03b	0.002195372
143	0x3c89cdf8	0.016821846
144	0xbd5d671d	-0.054053415
145	0x3d29d943	0.041466963
146	0x3c9de01e	0.019271906
147	0x3c95b4fe	0.01827478
148	0x3cc19c84	0.023634203
149	0xbc8ff463	-0.017572587
150	0x3cb2426f	0.021760194
151	0xbce9ab43	-0.028524047
152	0x3d44e201	0.048067097
153	0x3d8e5b0c	0.069509596
154	0x3da2b0dd	0.0794389
155	0x3c1865c8	0.00930161
156	0x3cf9bf31	0.030486675
157	0xbd09b92b	-0.033623856
158	0x3cc8acac	0.024496399
159	0x3c378f41	0.011203588
160	0x3d53a287	0.05166867
161	0xbd29c1e6	-0.04144468
162	0xbd035bdd	-0.03207003
163	0xbd3b16b8	-0.045675963
164	0xb94d7d24	-0.00019596942
165	0x3cd25a86	0.02567793
166	0x3b095c89	0.0020959696
167	0x3a941fe8	0.0011301013
168	0x3c1bd1de	0.009510485
169	0xbd3f35d8	-0.04668221
170	0x3d83ae48	0.06429726
171	0x3cdd7b84	0.027036436
172	0x3d884326	0.066534325
173	0xbd300846	-0.04297664
174	0xbd0b6ea8	-0.034041077
175	0xbcc4bd62	-0.024016086
176	0xbd4f9a4e	-0.050684266
177	0xbd512c25	-0.05106749
178	0x3b124487	0.0022318678
179	0x3cf54d7d	0.029944176
180	0x3d4f781d	0.05065166
181	0x3ce10682	0.027468923
182	0xbcdf974a	-0.02729382
183	0x3c8d2d5c	0.017233543
184	0x3bed9c2f	0.0072512846
185	0xbcdeec15	-0.027212182
186	0x3c330892	0.010927336
187	0xbca5101e	-0.020149287
188	0xbcc719c1	-0.024304273
189	0x3cbec392	0.023286615
190	0xbcf0eb6c	-0.029409133
191	0xbb165a02	-0.0022941832
192	0xbcd7233b	-0.026261916
193	0xbd22bce5	-0.039730925
194	0x3cc29d4b	0.023756644
195	0xbc02c8da	-0.007982457
196	0x3d4cfde1	0.050046805
197	0x3d23a6d5	0.039954025
198	0x3b3aa247	0.0028478072
199	0x3b62d991	0.0034614543
200	0xbd55690e	-0.05210214
201	0x3c54a602	0.0129790325
202	0xbd0e8e64	-0.034803763
203	0xbd024b5f	-0.03181016
204	0x3c27d722	0.010244163
205	0x3cbc36a2	0.02297527
206	0xbd5aea56	-0.053446136
207	0xbd3d7ba2	-0.046260484
208	0xbdd57c5f	-0.104241125
209	0xbdd52a79	-0.10408492
210	0x3c8f4499	0.017488765
211	0xbc9f6ec7	-0.019462002
212	0x3b1aef9b	0.002364135
213	0xbdc35ad3	-0.09538808
214	0xbd7bf1fe	-0.06151008
215	0x3d504ce9	0.050854597
216	0x3c9c56b8	0.01908432
217	0xbd27416d	-0.04083388
218	0x3c8d6733	0.017261123
219	0x3d3555ee	0.044271402
220	0x3c24291a	0.010019565
221	0xbd49832e	-0.04919737
222	0x3d91d0cb	0.07119902
223	0x3de46668	0.11152345
224	0x3d9411bd	0.07229946
225	0xbd2dd5c2	-0.042440183
226	0xbc3d4bba	-0.011553699
227	0xbd05105d	-0.03248631
228	0xbc837355	-0.016046206
229	0xbc135519	-0.008992457
230	0xbd3078b3	-0.043083858
231	0x3c8de543	0.017321235
232	0xbcaaa3f4	-0.020830132
233	0x3d78f286	0.060778163
234	0x3d56cdc6	0.052442335
235	0xbd36dad1	-0.044642273
236	0x3d80ca1b	0.062885486
237	0x3cc1d798	0.023662373
238	0xbc8da3fa	-0.017290104
239	0x3caeaf57	0.021323843
240	0x3c968c59	0.01837747
241	0x3d8d9a10	0.06914151
242	0x3d26c236	0.040712558
243	0xbd712721	-0.058875207
244	0x3c567e82	0.013091685
245	0x3ce7a607	0.02827741
246	0xbc142bcb	-0.009043644
247	0xbbc23639	-0.005926874
248	0x3d1c61e5	0.038179297
249	0x3d2ff0f7	0.04295441
250	0xbd9d1f5d	-0.07671998
251	0xbb3a68ba	-0.002844377
252	0x3c6fcc43	0.014636102
253	0xbc87cf53	-0.016578352
254	0x3d1aade1	0.03776348
255	0x3ca0181f	0.019542752

conv3.bias f4 [120]
0	0x3d4e3c71	0.05035061
1	0xbba1ba86	-0.0049355654
2	0x3bfd5eb3	0.0077322363
3	0xbbc11d25	-0.005893367
4	0x3d81c6d1	0.06336749
5	0x3cbd2b16	0.023091834
6	0x3d2d4355	0.04230054
7	0xbd309ceb	-0.0431184
8	0xbd2398f7	-0.0399408
9	0xbcb82b80	-0.02248168
10	0x3d42ad41	0.04752851
11	0x3d3e0a05	0.046396274
12	0x3c71cd83	0.0147584705
13	0xbc20225f	-0.00977382
14	0x3d9d4420	0.076790094
15	0xbc26b058	-0.01017388
16	0xbc18f519	-0.00933578
17	0x3cbac8cb	0.022800824
18	0xbb8a83ec	-0.004227152
19	0xbd57ad96	-0.05265578
20	0x3cb36be6	0.021902036
21	0x3d290cbd	0.041271914
22	0xbd3e6425	-0.046482224
23	0x3d057fba	0.032592513
24	0x39d4eafb	0.00040610865
25	0xbc853008	-0.016258255
26	0xbc2237a4	-0.009900961
27	0xbc427946	-0.011869734
28	0xbc4f9f14	-0.0126722045
29	0xbbf0ab4c	-0.007344639
30	0xbb805362	-0.00391619
31	0x3cd04524	0.025423594
32	0xbd0a7aec	-0.033808634
33	0x3d06afbf	0.03288245
34	0x3d0d981e	0.0345689
35	0x3d5c8a22	0.05384267
36	0x3d4b077f	0.049567696
37	0xbd1ee509	-0.038792644
38	0xbce5ade5	-0.028037021
39	0xbbff5143	-0.0077916696
40	0x3c490529	0.012269297
41	0xbd13466b	-0.035955828
42	0xbd20c41c	-0.039249524
43	0x3c6edc27	0.014578856
44	0x3ca7bb96	0.02047519
45	0x3d2e43e7	0.042545225
46	0xba8ecfd8	-0.0010895682
47	0xbb41f5c1	-0.0029595944
48	0x3c590c28	0.013247527
49	0x3aaa9b5f	0.0013016275
50	0xbd57aee6	-0.05265703
51	0x3d13863d	0.03601669
52	0x3d6a754a	0.05724076
53	0x3cd0cc31	0.025487991
54	0x3cc7432f	0.024324028
55	0xbb03296d	-0.0020013705
56	0x3d27513d	0.04084896
57	0x3c954f9e	0.018226441
58	0x3d3c5d14	0.045987204
59	0x3c492226	0.012276208
60	0x3bd6ba16	0.006552945
61	0xbd0675ec	-0.032827303
62	0x3d66f4cc	0.0563858
63	0xbbd3501c	-0.0064487588
64	0xbd42373a	-0.04741595
65	0xbd3a9548	-0.045552522
66	0xbc720d22	-0.014773639
67	0xbcec2d8e	-0.028830316
68	0xbd33f97a	-0.04393909
69	0x3c918779	0.017764794
70	0x3bd6912e	0.0065480685
71	0xbcf6f62b	-0.030146679
72	0xbbc76231	-0.0060847034
73	0xbc4e3c09	-0.012587556
74	0x3accf445	0.0015636763
75	0xbd28a8e0	-0.041176677
76	0xbd23ae54	-0.039961174
77	0xbcfd3ae4	-0.03091187
78	0xbc4f2501	-0.0126431
79	0x3d029a8b	0.031885665
80	0x3c50a800	0.012735367
81	0x3d774ca7	0.060375836
82	0xbd1ba447	-0.037998464
83	0xbd353886	-0.044243358
84	0xbcfed41d	-0.031107003
85	0xbcfee17c	-0.031113379
86	0x3c27f94c	0.010252308
87	0xbcda0f6c	-0.026618682
88	0xbcc78ea6	-0.024360012
89	0x3d6e3e94	0.058165148
90	0xbd1073c8	-0.035266668
91	0x3c6592b2	0.014012026
92	0xbd2c6c2b	-0.042095345
93	0xbd22dd79	-0.039761994
94	0xbd1ea650	-0.038732827
95	0x3c0616a2	0.008184107
96	0xbbb2ceb1	-0.0054567684
97	0x3cb54472	0.022127364
98	0xbd2c515c	-0.042069778
99	0x3c703c4f	0.014662816
100	0x3d407131	0.046982948
101	0x3d0f84f8	0.03503892
102	0x3bd96fba	0.0066356333
103	0x3ca1a8e6	0.019733857
104	0xbd2f56e2	-0.042807467
105	0x3d366cb6	0.04453727
106	0xbc0139a4	-0.007887278
107	0x3cf2e98c	0.02965238
108	0x3c882c26	0.016622614
109	0xbbb774be	-0.0055986336
110	0x3cbb0edc	0.022834234
111	0x3d0e338c	0.034717128
112	0x3cf43cf0	0.029814214
113	0xbce3c5a7	-0.027804209
114	0xba7838f1	-0.0009468934
115	0xbd0d1fba	-0.034454085
116	0xba9d24b6	-0.001198909
117	0xbd643824	-0.055717602
118	0x3cee7d09	0.029112356
119	0xbd2e53d0	-0.0425604

linear1.weight f4 [84, 120]
0	0xbd8f8378	-0.070074975
1	0x3d733ac2	0.059382208
2	0xbdd59415	-0.10428635
3	0x3cb437c7	0.021999253
4	0x3db776c4	0.089581996
5	0xbc054e01	-0.008136273
6	0x3d4af9ab	0.04955451
7	0x3d2d5c5d	0.042324413
8	0xbd189cac	-0.03725879
9	0x3d5a16b7	0.05324432
10	0xbd42587e	-0.047447674
11	0xbb6feb5c	-0.003660879
12	0xbd7bed30	-0.061505497
13	0xbd265e75	-0.040617425
14	0x3dc1ba41	0.09459353
15	0xbd078e37	-0.03309461
16	0xbddb79c7	-0.107165866
17	0x3da1404d	0.078735925
18	0x3da0d0f7	0.07852357
19	0x3ba544d6	0.0050436063
20	0x3d47d9b7	0.048791613
21	0x3d9201f1	0.071292765
22	0xbdbad093	-0.091218136
23	0xbd029b6e	-0.03188651
24	0x3d1069b8	0.03525707
25	0x3bae8433	0.005325818
26	0x3de2b3ec	0.110694736
27	0xbc87dcc1	-0.016584756
28	0x3d6546b9	0.05597565
29	0xbd911616	-0.07084291
30	0xbd10b243	-0.035326254
31	0x3ca7f069	0.020500379
32	0x3de9d069	0.11416704
33	0xbdc0ef2e	-0.0942062
34	0xbd4cf0ea	-0.05003444
35	0xbd90161d	-0.07035468
36	0xbd8ef670	-0.06980598
37	0x3d0452ad	0.03230541
38	0xb9ca81cc	-0.0003862515
39	0x3de32c9f	0.11092495
40	0xbc8f38f8	-0.01748322
41	0xbbd17344	-0.0063919146
42	0xbd884855	-0.06654421
43	0xbe0bad7c	-0.13640398
44	0xbdb9077b	-0.0903463
45	0x3d0880fe	0.03332614
46	0xbc1012a2	-0.008793505
47	0xbd8e71b3	-0.0695528
48	0xbcf120ca	-0.02943458
49	0xbd8662d4	-0.06561819
50	0xbb4f54ee	-0.0031636315
51	0xbdb4fd46	-0.088373706
52	0xbd8cd499	-0.06876487
53	0xbdc54594	-0.096324116
54	0xbd79fb13	-0.06103046
55	0x3da0b043	0.07846119
56	0xbd89e9be	-0.06734036
57	0xbda52904	-0.08064464
58	0x3d8ea1c7	0.0696445
59	0xbdb7a44b	-0.08966883
60	0xbd640020	-0.05566418
61	0xbd50de94	-0.050993517
62	0xbc6ae95a	-0.014337862
63	0x3d868248	0.06567818
64	0x3dbcdac8	0.09221417
65	0x3c562d0c	0.013072263
66	0x3da108ed	0.078630306
67	0xbd3c1477	-0.045917954
68	0xbd9ad2a9	-0.075597115
69	0x3d51f3ef	0.051258024
70	0xbd8c0366	-0.06836586
71	0x3cf330d4	0.029686369
72	0x3d888395	0.06665722
73	0x3d0c5b81	0.034266952
74	0x3d6a9b1c	0.05727683
75	0xbb7d8dbb	-0.0038689214
76	0x3c50cae4	0.012743685
77	0x3dbada83	0.09123709
78	0x3d7ffcbd	0.06249689
79	0xbd8cdc4f	-0.06877958
80	0x3d4f837f	0.050662514
81	0xbd84a9bb	-0.06477686
82	0xbd49ead6	-0.049296223
83	0x3c9b6a8f	0.01897171
84	0x3c9b4896	0.01895551
85	0x3d6793fe	0.05653762
86	0xbb416b32	-0.0029513356
87	0x3d1bf901	0.038079266
88	0xbc7894a2	-0.015172156
89	0x3dd49ca5	0.1038144
90	0xbcc8eced	-0.024527038
91	0xbd3382d6	-0.043825947
92	0xbd8912ed	-0.06693063
93	0x3d529132	0.051408
94	0xbc3eefc0	-0.011653841
95	0x3dd18a57	0.10231464
96	0xbce03168	-0.027367309
97	0xbc2efe2f	-0.010680719
98	0xbcadc88e	-0.021213796
99	0x3cfdefdf	0.030998169
100	0xbd832406	-0.06403355
101	0x3c7acb86	0.015307313
102	0x3d5e8857	0.054329243
103	0x3cbaea96	0.022816937
104	0x3d95c518	0.07312983
105	0x3b8f59d7	0.0043747234
106	0x3c86813d	0.016419047
107	0xbd647099	-0.055771444
108	0x3dacc266	0.08435516
109	0xbdd8f0a9	-0.10592777
110	0x3d8af0cf	0.06784212
111	0x3d265907	0.040612247
112	0x3cb53d18	0.022123858
113	0xbd1360c5	-0.03598096
114	0xbd82c3ee	-0.06385027
115	0xbba5bce2	-0.005057917
116	0xbd824e9c	-0.0636265
117	0x3c3111bb	0.01080745
118	0xbd77ed39	-0.060528968
119	0xbd2fb64f	-0.042898472
120	0xbd66fc50	-0.056392968
121	0xbdc36ac9	-0.09541852
122	0xbd87a438	-0.06623119
123	0xbd00c5e7	-0.031438734
124	0xbd819c04	-0.06328586
125	0x3bef6b3f	0.007306486
126	0xbda9b977	-0.08287328
127	0x3d3a2a82	0.045450695
128	0x3d87393e	0.06602715
129	0x3cdf4526	0.027254652
130	0xbd9e8b93	-0.077414654
131	0x3d61e735	0.055152137
132	0xbd95fd22	-0.07323672
133	0x3dd8283b	0.10554548
134	0xbd480709	-0.048834834
135	0xbd90d710	-0.0707227
136	0x3dab1c3b	0.08354994
137	0x3c23897d	0.00998151
138	0x3d25711c	0.040391073
139	0x3d9fad74	0.077967554
140	0x3dd1410f	0.10217487
141	0x3d6d12ab	0.05787913
142	0x3d9c11d1	0.07620586
143	0x3d2e0cfc	0.04249285
144	0x3d39f1e9	0.04539672
145	0xbcdc795b	-0.026913336
146	0x3df7ae9f	0.12093853
147	0xbdab1081	-0.08352757
148	0x3da84262	0.082157865
149	0x3d3f3be8	0.04668799
150	0xb9abd20f	-0.00032772167
151	0x3d939805	0.0720673
152	0xbc22f39f	-0.009945779
153	0xbcb57017	-0.022148175
154	0xbabcf04c	-0.0014414876
155	0xb995a02f	-0.0002853884
156	0x3d6d89c6	0.05799272
157	0x3d2f5ae1	0.04281128
158	0xbe0296a2	-0.12752774
159	0x3d9087f9	0.07057185
160	0xbd41ae6b	-0.04728548
161	0x3db44121	0.08801485
162	0xbd8564e1	-0.06513382
163	0x3dcd5b11	0.10027135
164	0xbd49b1bd	-0.04924177
165	0xbd926bd7	-0.07149475
166	0xbd9fc7f9	-0.07801814
167	0x3cbeb802	0.023281101
168	0x3d6c364d	0.057668973
169	0x3cbc549b	0.022989562
170	0x3db11c4c	0.08647975
171	0x3c72d9ad	0.014822406
172	0xbda2c4d2	-0.07947697
173	0xbdcbc2d4	-0.0994927
174	0xbba5c48a	-0.0050588297
175	0x3d10570b	0.03523926
176	0x3dbd7100	0.09250069
177	0xbd8b26ce	-0.06794511
178	0xbdb4cd9d	-0.0882828
179	0x3d47a7b2	0.04874391
180	0xbde9e2c5	-0.11420206
181	0xbca27b56	-0.019834202
182	0x3d41a9b7	0.047280993
183	0x3d14341f	0.03618252
184	0xbc177f9e	-0.009246735
185	0x3d16edea	0.036847986
186	0xbc16abe5	-0.009196256
187	0xbd5e648c	-0.054295108
188	0x3d978168	0.07397729
189	0x3d2f68cc	0.04282455
190	0x3c41a4d9	0.011819088
191	0x3d7ed31f	0.06221306
192	0xbd9bf442	-0.07614948
193	0x3d0d82b5	0.03454848
194	0xbd49ebbb	-0.049297076
195	0x3d989aa0	0.074513674
196	0xbd2d8315	-0.042361338
197	0xbd6e793d	-0.05822109
198	0x3cf9a39c	0.030473523
199	0xbd874e32	-0.066067114
200	0x3d0adedc	0.03390394
201	0xbddb953f	-0.10721826
202	0xbd5d4ff5	-0.05403133
203	0xbd3cda18	-0.046106428
204	0xbd8a3dd5	-0.06750075
205	0x3dab45c4	0.08362916
206	0xbd8261f1	-0.06366337
207	0xbdc0c069	-0.09411699
208	0x3d4d84ec	0.050175592
209	0x3b72859e	0.0037005912
210	0x3c5f9447	0.013646192
211	0xbc071de1	-0.00824687
212	0xbd903a22	-0.07042338
213	0xbb28c45d	-0.0025751807
214	0x3c4267da	0.01186558
215	0x3d503fcf	0.050842103
216	0x3d287f8c	0.041137263
217	0x3be24b6c	0.0069059636
218	0x3d2b6c39	0.041851256
219	0x3dd1b654	0.102398545
220	0xbba8db2e	-0.0051530814
221	0x3da09e29	0.07842667
222	0xbd31a90b	-0.043374103
223	0xbcc42ccc	-0.023947142
224	0x3d9ecefd	0.07754324
225	0x3d0755a1	0.033040646
226	0xbcaf34fc	-0.02138757
227	0xbd5f1f51	-0.054473225
228	0xbc6257d6	-0.013814887
229	0x3d9e03b1	0.07715548
230	0xbd82665d	-0.063671805
231	0x3d380adc	0.04493223
232	0x3d752769	0.059852038
233	0xbc47da12	-0.012197988
234	0x3d176ee9	0.036971007
235	0x3c1319e5	0.008978342
236	0xbd5f99d4	-0.05459006
237	0xbaf1017b	-0.0018387282
238	0xbd995d9b	-0.07488557
239	0x3ccee16d	0.025253976
240	0xbde3dd8a	-0.111262396
241	0x3dccb342	0.09995128
242	0xbdc3171b	-0.095258914
243	0xbdb9dfb5	-0.09075872
244	0x3cdddfa1	0.027084174
245	0xbbb8d180	-0.0056402087
246	0x3d16a3c0	0.036777258
247	0x3d6e643b	0.058201056
248	0x3db6e3ae	0.08930145
249	0x3c6d6cf2	0.014491307
250	0x3b92d848	0.004481349
251	0x3dcb0355	0.09912745
252	0xbc4c5ac6	-0.012472814
253	0x3d177bfa	0.036983468
254	0xbd19eb90	-0.037578166
255	0xbda3cc4b	-0.0799795

linear1.bias f4 [84]
0	0xbcc8274e	-0.024432804
1	0xbd8f03d6	-0.069831535
2	0x3bf6b47f	0.007528841
3	0xbcf428a1	-0.02980453
4	0xbd9ef126	-0.07760839
5	0xbd9c42af	-0.076299064
6	0x3d95eb16	0.0732023
7	0xbd8ca543	-0.06867459
8	0xbd170b42	-0.03687597
9	0x3d9f3a1a	0.07774754
10	0xbcaf6c25	-0.021413872
11	0xbcbc946d	-0.023019994
12	0x3d47002f	0.04858416
13	0xbda1055c	-0.0786235
14	0x3d80d0ae	0.062898025
15	0x3c650827	0.013978994
16	0xbc6194bd	-0.013768372
17	0xbd994825	-0.074844636
18	0xbdb4d0bb	-0.08828875
19	0xbd26c48e	-0.040714793
20	0x3c383a70	0.011244401
21	0x3c87f0ae	0.016594257
22	0x3da8bd0a	0.08239181
23	0x3d8f32bf	0.06992101
24	0xbd97fc1c	-0.07421133
25	0xbc57eea5	-0.013179456
26	0xbd77e786	-0.060523532
27	0xbc18c900	-0.009325266
28	0x3d2b3919	0.0418025
29	0x3cc580f0	0.024109334
30	0xbd8fcaff	-0.0702114
31	0x3dbdd314	0.092687756
32	0xbd841b02	-0.06450464
33	0x3d0cee21	0.034406785
34	0x3d8bf351	0.06833518
35	0xbcbad80a	-0.022808094
36	0x3ceca4ac	0.028887115
37	0xbc525f34	-0.012840081
38	0x3ba153c0	0.004923314
39	0x3d6dc65c	0.0580505
40	0xbd065b16	-0.03280171
41	0x3d409d11	0.04702479
42	0x3d8cb423	0.06870296
43	0x3ce963ce	0.028489973
44	0xbc27b984	-0.010237101
45	0x3d3a7450	0.04552108
46	0x3d6c18df	0.057640906
47	0xbc9b5da7	-0.018965555
48	0x3b8912cc	0.004183149
49	0xbcef9d24	-0.029249735
50	0xbd43e263	-0.04782332
51	0x3b5c5e5b	0.0033625576
52	0x3bd9feb7	0.006652679
53	0xbd863ee5	-0.06554965
54	0xbdbe64da	-0.0929658
55	0x3d48037c	0.048831448
56	0x3db6477d	0.08900354
57	0x3d86b7b0	0.06578004
58	0xbd7cceaa	-0.061720528
59	0xbd533fe4	-0.051574603
60	0xbda5487d	-0.08070467
61	0xbd4dc01b	-0.050232034
62	0x3d5426a6	0.05179467
63	0xbdc8c5de	-0.09803365
64	0x3d86470a	0.065565184
65	0x3d5136b2	0.051077552
66	0xbca88604	-0.020571716
67	0xbd57faed	-0.052729536
68	0x3cfdc6b3	0.030978536
69	0x3c411be8	0.0117864385
70	0x3d802c89	0.062584944
71	0x3d42202e	0.04739397
72	0xbdb3278d	-0.08747778
73	0xbc939327	-0.018014504
74	0xbd9cd594	-0.07657924
75	0xbcc86579	-0.024462448
76	0x3da1dd0c	0.079034895
77	0x3d5acc4a	0.05341748
78	0xbc3102db	-0.010803903
79	0x3c873bc5	0.016507993
80	0x3bbcdd9d	0.005763723
81	0xbc387d70	-0.011260375
82	0xbd92767b	-0.071515046
83	0xbce7290f	-0.02821782

linear2.weight f4 [10, 84]
0	0xbde49711	-0.11161626
1	0xbe2f0af0	-0.17094016
2	0xbe5e0f34	-0.21685487
3	0xbd353c5d	-0.04424702
4	0xbd0616eb	-0.0327367
5	0x3d601f75	0.0547175
6	0x3d5a34c7	0.05327299
7	0xbe242a40	-0.16031742
8	0xbe1154fa	-0.14192572
9	0xbd876621	-0.066112764
10	0x3c23ce6c	0.009997945
11	0xbe147782	-0.14498714
12	0xbbb95b2c	-0.0056566205
13	0xbc26422b	-0.010147612
14	0xbe216f1c	-0.15765041
15	0x3d837053	0.064179085
16	0x3e5339f4	0.20627576
17	0x3e54a09d	0.20764394
18	0xbc94ae1d	-0.01814943
19	0xbd4dda9a	-0.050257303
20	0xbe21dd2d	-0.15807028
21	0xbe756ff5	-0.2396849
22	0x3df9e83d	0.12202499
23	0x3e0812d0	0.13288426
24	0xbdacc7b3	-0.08436527
25	0x3da1a945	0.07893614
26	0xbda191fa	-0.07889171
27	0xbe1fed5d	-0.1561789
28	0x3c22381e	0.009901075
29	0x3e15556a	0.14583364
30	0xbd44de93	-0.048063826
31	0x3e508554	0.2036336
32	0xbc6fbfe3	-0.014633152
33	0xbe48443d	-0.19557281
34	0x3cbc6f37	0.02300225
35	0x3e2e7716	0.17037615
36	0xbe4cbbcf	-0.19993518
37	0xbd5856b5	-0.052817065
38	0xbdfcec57	-0.12349766
39	0xbb2e851a	-0.0026629628
40	0xbe9a3005	-0.3011476
41	0x3e2dc656	0.1697019
42	0x3e6055f2	0.21907786
43	0xbd20a7c7	-0.039222505
44	0xbdc8d394	-0.0980598
45	0xbd05bb9e	-0.03264963
46	0xbd14506e	-0.036209516
47	0xbe1c3219	-0.15253486
48	0xbdb781ed	-0.08960328
49	0xbdcdaa30	-0.10042226
50	0xb9e3cc28	-0.00043448922
51	0x3dbefe51	0.09325851
52	0x3e13accc	0.14421386
53	0xbe2bb9ca	-0.16770092
54	0x3e6fc0ef	0.23413442
55	0x3e390edc	0.18072075
56	0xbe13bfd8	-0.14428651
57	0xbd1c385f	-0.038139697
58	0xbd9f3e83	-0.07775595
59	0xbe14e409	-0.14540114
60	0x3e3c7bbf	0.1840658
61	0x3e41c4a1	0.18922664
62	0x3e2e5894	0.17025977
63	0xbe6c62b8	-0.23084533
64	0x3dd1f844	0.10252431
65	0x3a78738e	0.0009477668
66	0xbe443da5	-0.1916414
67	0xbe3b18a1	-0.18271114
68	0x3e1c0fc9	0.15240397
69	0xbcb551af	-0.022133676
70	0x3e4bd348	0.19904816
71	0xbe253efd	-0.1613731
72	0x3e4374d1	0.1908753
73	0xbe380fdc	-0.179748
74	0x3da73659	0.08164663
75	0x3e1a3562	0.15059426
76	0xbc4bbcdf	-0.012435167
77	0x3d56e127	0.052460816
78	0xbbdcafb3	-0.006734812
79	0xbe3e93e4	-0.18611103
80	0xbdf1f92f	-0.11815106
81	0xbdf2eaca	-0.11861189
82	0xbc5c91da	-0.013462508
83	0x3d9fab77	0.07796376
84	0xbcd54c3c	-0.026037328
85	0xbdfabde4	-0.1224325
86	0xbe6e0fa6	-0.23248157
87	0x3d7f1641	0.062277082
88	0xbe684580	-0.22682762
89	0x3d74dcfd	0.059781063
90	0xbd1df25e	-0.038561217
91	0x3e11f07e	0.14251897
92	0x3e4df672	0.20113543
93	0x3db88898	0.09010428
94	0xbdcc246f	-0.09967887
95	0xbc345233	-0.011005926
96	0x3d03d2f3	0.0321836
97	0xbbbe25cb	-0.005802845
98	0xbd193899	-0.03740749
99	0xbe66e95a	-0.22549954
100	0xbd640836	-0.055671893
101	0xbd7404e1	-0.059574965
102	0x3d255e1a	0.040372945
103	0xbe3e6071	-0.18591477
104	0x3d959dd8	0.07305497
105	0x3c405a0f	0.011740222
106	0x3e32cf59	0.1746191
107	0x3e7f8c79	0.2495593
108	0xbbd9f38d	-0.006651348
109	0x3d80a01b	0.06280538
110	0x3e581282	0.2110081
111	0x3e1aa08b	0.15100305
112	0xbd58578a	-0.05281786
113	0xbd9fd19c	-0.07803652
114	0xbe18cee3	-0.14922671
115	0x3da25228	0.07925826
116	0xbda56d64	-0.08077505
117	0x3e2d9778	0.16952312
118	0x3ea88fc3	0.3292218
119	0xbc494c80	-0.012286305
120	0x3e670ca8	0.22563422
121	0xbd1f2dd9	-0.038862083
122	0xbdb96ff8	-0.090545595
123	0xbc8e72e6	-0.017388772
124	0x3e013187	0.1261655
125	0x3e4ce0eb	0.20007674
126	0x3e8167e3	0.25274572
127	0xbe081cf9	-0.13292302
128	0x3e20c72d	0.1570098
129	0x3e6397fc	0.22225946
130	0x3cf2cfdd	0.029640133
131	0xbdad4e1d	-0.084621646
132	0x3e10d360	0.14143133
133	0x3e633367	0.22187577
134	0xbc257700	-0.010099173
135	0xbe194cee	-0.14970753
136	0x3de8f821	0.11375452
137	0xbe42313b	-0.18964092
138	0xbe5ece34	-0.21758348
139	0xbb951e2d	-0.0045507164
140	0x3e4214d5	0.1895326
141	0xbd9c0eee	-0.07620035
142	0xbd945910	-0.0724355
143	0x3e06a021	0.13147022
144	0x3deda954	0.116045624
145	0xbdec3ae0	-0.11534667
146	0xbe3fd760	-0.18734503
147	0xbda76a7d	-0.08174608
148	0x3d3354d6	0.043782078
149	0xbe10c0ca	-0.14136043
150	0x3ca00ae8	0.01953645
151	0x3e413b87	0.18870364
152	0x3e4d0b6a	0.20023885
153	0xbdfe7c85	-0.12426094
154	0x3d41b865	0.047294993
155	0xbda70f7a	-0.08157249
156	0xbcea8185	-0.028626213
157	0xbd2f5b77	-0.042811837
158	0xbe03a86b	-0.12857215
159	0x3e00a88a	0.12564293
160	0x3db5d6fb	0.08878895
161	0xbdc37a5d	-0.09544823
162	0x3ddf1ae9	0.108938046
163	0x3d3c768b	0.04601149
164	0x3d9a5c5f	0.0753715
165	0xbe36d936	-0.17856297
166	0xbd9a256e	-0.075266704
167	0x3d2b6e34	0.041853145
168	0xbd3e6c22	-0.046489842
169	0x3d183703	0.03716184
170	0xbd1d74cb	-0.03844146
171	0x3d96d29c	0.07364389
172	0xbdad0e60	-0.084500074
173	0x3e2d9129	0.16949905
174	0x3e2d7e1a	0.16942635
175	0x3df714c4	0.120645076
176	0x3d896694	0.06709018
177	0xbe483c35	-0.19554217
178	0xbcd24884	-0.025669344
179	0xbd80140b	-0.06253823
180	0x3dbf78d5	0.09349219
181	0xbe1ef958	-0.15524805
182	0xbdc0a5a0	-0.094065905
183	0x3c377fdf	0.01119992
184	0x3c947db6	0.01812635
185	0xbdf449f4	-0.11928168
186	0x3dbe2a83	0.09285452
187	0x3d9f2d21	0.077722795
188	0xbd8bb309	-0.068212576
189	0xbdff9173	-0.12478914
190	0xbced50d0	-0.028969198
191	0xbdc0461c	-0.09388372
192	0xbe76f62f	-0.24117349
193	0xbd6ddf60	-0.058074355
194	0xbd90a0ec	-0.070619434
195	0x3d9460ec	0.07245049
196	0x3e2058fd	0.15658946
197	0xbe634e4d	-0.22197838
198	0x3e4bc7b3	0.19900398
199	0xbe73bb26	-0.2380186
200	0xbd377df1	-0.04479784
201	0xbe4b075e	-0.19827029
202	0x3b020eb8	0.00198452
203	0x3de5cbd8	0.11220521
204	0xbdfd13dc	-0.123573035
205	0xbdcfa9a0	-0.10139775
206	0xbe30ab9e	-0.17252967
207	0x3e306cfa	0.17229071
208	0xbcf5befe	-0.029998299
209	0x3c29369a	0.010327959
210	0x3e006015	0.12536652
211	0x3e8aef65	0.2713577
212	0xbccecf92	-0.025245462
213	0x3dc327a7	0.095290475
214	0x3e10779f	0.14108132
215	0xbd945a94	-0.07243839
216	0xbe1fae31	-0.15593792
217	0x3e246f34	0.16058046
218	0xbb7a08da	-0.0038152249
219	0xbdb2f5e0	-0.08738303
220	0xbd3c98e6	-0.046044253
221	0x3df647c9	0.12025411
222	0x3d5eabde	0.054363124
223	0xbd94aabf	-0.0725913
224	0x3e255fa5	0.16149767
225	0x3bed8856	0.0072489185
226	0xbe077b51	-0.13230635
227	0x3c757cef	0.0149834
228	0x3de299c0	0.11064482
229	0xbd03db2a	-0.032191433
230	0x3d0e31fc	0.034715638
231	0x3deb68d6	0.11494605
232	0x3e09f4e4	0.13472325
233	0x3e1dbf15	0.15404923
234	0x3e13fdaa	0.14452234
235	0xbd862bb9	-0.06551308
236	0x3e63a1b8	0.2222966
237	0xbe2b3026	-0.16717586
238	0x3dfd7880	0.12376499
239	0x3e7e98e2	0.24863008
240	0xbe258c8e	-0.16166899
241	0x3dbb0987	0.091326766
242	0x3e2e87af	0.17043947
243	0x3e713a40	0.23557377
244	0xbe6c2b85	-0.23063476
245	0xbcecb0bb	-0.028892865
246	0x3d77d732	0.06050796
247	0x3bc06ddd	0.0058724717
248	0x3e326e17	0.17424808
249	0xbd2e9187	-0.042619254
250	0xbdbea5e5	-0.093089856
251	0xbe5e4e2c	-0.21709508
252	0x3df18a60	0.11793971
253	0xbc29688f	-0.01033987
254	0x3e7f74ef	0.2494695
255	0x3e880f72	0.26574284

linear2.bias f4 [10]
0	0xbd45e668	-0.048315436
1	0x3db7a542	0.08967067
2	0x3cf3b3b2	0.029748771
3	0x3d99f1c6	0.07516818
4	0xbbc103e5	-0.005890357
5	0xbd7c9ada	-0.061671115
6	0xbdd53f07	-0.10412412
7	0x3d4349c9	0.04767779
8	0x3dbda51c	0.09260008
9	0xbba6385c	-0.0050726365
